leukemia_gnn_model.pth (torch, 15655 bytes, 8 tensors)

conv1.bias f4 [16]
00000000: 94da 19be fc88 fdbd 0000 0000 0000 0000
00000010: d6f3 123c 0000 0000 0000 0000 3385 10be
00000020: 0000 0000 b522 53be efb6 363d 0c16 21be
00000030: b854 0ebe 1863 6fbe 0000 0000 0000 0000
-0.15024787 -0.12379643 0.0 0.0 0.008969268 0.0 0.0 -0.14113311
0.0 -0.20618708 0.044608053 -0.15731066 -0.13899505 -0.23377645 0.0 0.0

conv1.lin.weight f4 [16, 1]
00000000: 8dbf 2d3f a8cc 193f 88fd f2bd 3842 f3be
00000010: deda 413f 3013 e0be 7451 08bf 7cd9 0a3f
00000020: 400b a8bc 40af 7d3f 56e3 3d3f 2f1b 093f
00000030: cd08 043f 5fef 633f f04f 53bd 9ad9 a9be
0.6787041 0.60077906 -0.118647635 -0.47511458 0.7572459 -0.4376464 -0.5324929 0.54238105
-0.020513177 0.99095535 0.7417501 0.53557104 0.5157593 0.89037126 -0.051589906 -0.3317383

conv2.bias f4 [32]
00000000: 8284 e6bd 26e9 cb3e f38c d8bd 1add d7bd
00000010: 9ab0 3abd 0ead f5bc ee8b cebd 5993 ccbd
00000020: 2962 c83d d9b5 bebd 4c6f e8bd f907 ae3e
00000030: 5be9 56bb e3f3 3bbe fd8a 11bd 6b5b aabd
00000040: f2bd d8bd e01d eabd be8e e3bd b637 a6bc
00000050: 02a3 85bd 05d0 c23e 7512 e1bd f97e 0cbe
00000060: 2d73 be3e 1baf f53d be5f 8dbd 1def c53e
00000070: c383 d43e 4b3f 55bb 8114 b0be 7f29 1ebe
-0.112557426 0.39826316 -0.10573759 -0.10540219 -0.045578577 -0.029989745 -0.10085283 -0.09989042
0.097843476 -0.093120284 -0.11349353 0.33990458 -0.00327929 -0.18354754 -0.03553294 -0.08318218
-0.10583104 -0.114314795 -0.1111121 -0.020290237 -0.06525232 0.3804933 -0.109898485 -0.13720311
0.37197247 0.11996289 -0.06903027 0.3865899 0.41506776 -0.0032538946 -0.34390643 -0.15445517

conv2.lin.weight f4 [32, 16]
00000000: 800d 303f 8a3a 973e ecb1 84bd 0006 41bb
00000010: a1a3 333f 404c 113c 044a e63d d6cb 543f
00000020: 30c3 083e 620e 043f aef7 d13e c052 063f
00000030: 7b68 ff3e dd43 163f 5df4 47be 4889 a9be
00000040: 5868 47be 7374 223d ce0c b4be b44c eb3d
00000050: 8a6d ec3d 72d6 463e ecf2 5dbe e058 14be
00000060: f68e 2b3e fb7e c0be a8c5 2e3e 8398 c9be
00000070: 0925 d2be bcde 44be c226 90be 3a09 343e
00000080: 5e24 0c3f 8c82 133f c4fa aa3d 57fc 67be
00000090: 5dc7 113f e0c6 1b3c 8fee b23e 95e8 0f3f
000000a0: 0028 71ba e71e cd3e eae1 453e 320c bd3e
000000b0: 2f7c 483f 8429 4f3e 38ca e63d 09e7 44be
000000c0: 1fd1 c23e e27f 403e c7e7 39be 00f0 5e3c
000000d0: 7076 223f cdc2 34be 390a 58be 1b60 b93e
000000e0: 7505 9f3e f4f3 003f 64ba 6b3d e578 6f3e
000000f0: 866f 433f d323 0f3f a718 b13e a3e0 b3be
00000100: d504 24be 0a0a 08be ceab 2b3e 2dfb 3ebe
00000110: 916b 99be 20f3 8cbe 908a 80bd 1743 913e
00000120: 3a9d 89be 76d7 85be 251a 78bd 8adc 67be
00000130: 6207 a6bd 3933 90be 9cc1 c8bd 56c1 40be
00000140: e701 02be fb86 a3be 79e6 853e c32b ae3e
00000150: 035e 83be 45e5 28be 3c40 90be 37ab 59be
00000160: d58b 8c3e 65c7 883d ad7d adbe c9c7 ecbd
00000170: 76f0 16bd 63a7 8abd 27c1 13be 4785 9abe
00000180: 3e3b 4d3f 08a3 1f3f 48c8 223d 929d 2a3e
00000190: 637b 3e3e 9aa9 053e 78c5 20bd e565 e83e
000001a0: 402a 1dbc e471 f13e 9ef6 de3d c764 a23e
000001b0: 4cfd 103f 8864 ac3e fb01 ac3e f335 0fbe
000001c0: 50c5 e43e e59e 963e 10bd aebc 98fe 5e3d
000001d0: c70c c33e 28df 46be 46bc 3f3e 2deb 983e
000001e0: c0e5 abbc ea25 d03e d6d1 a63d ea06 553f
000001f0: b7c8 4a3e 2e61 073f 2c41 96be 94ae 83be
00000200: a5b1 2b3f b0da 443f d9e0 24be 58cf 1fbd
00000210: 9d03 693f d890 8bbd 335f b13e ca09 1e3f
00000220: c58b 66be 3ac9 1c3f 3cfe 2d3f bc02 493f
00000230: bdd6 0f3f 10fd a93e 23c8 a53e 1fe3 7dbe
00000240: 4491 153f d14d 3b3f 9810 adbe b3df b23e
00000250: 2363 2e3f c2cf 84be 7700 37be 723b 903e
00000260: fffd 8a3e b9fe 2d3f 2103 d73e 5948 df3e
00000270: 10f2 bb3e c218 873e 06f0 64be 7e86 673e
00000280: a4dd 303f 7aca 483f d83d 0abe ac8c 13be
00000290: a630 9c3e 0e12 5e3e 0a17 0a3e 8467 d23e
000002a0: de1f 50be 2ba2 e63e bfe1 2e3e 07b7 c13e
000002b0: f8fc be3e 6fb5 8c3e 802c a7bb c8df 9bbd
000002c0: b804 c9bc 7b28 143e 2096 fe3c 86e5 513e
000002d0: 9859 e03e 568f febd 204a ed3c 6684 a8be
000002e0: 0ad2 193e 7feb debe bf84 e43e 0772 92bd
000002f0: 52fb 20bf 37ea 09bf 245c 7fbe 0014 6ebd
00000300: 8f39 55be e65c 08be 8edb 1f3e 7ab8 303e
00000310: 0669 68bd de3b 623e 63dc 903e c2b8 a8be
00000320: ed63 893e dae8 4ebd 907e c7bd b8b0 72be
00000330: 5687 413e 1abd 7abe f421 d13d 8412 7bbe
00000340: 6ad5 143f 01ec 293f ec23 9abd faa3 703e
00000350: 9dce a03e 4578 ab3e ff84 993e 1ed6 803e
00000360: 2067 583d fd15 b83e 27bd 0a3f 1018 583f
00000370: bd48 273f b1cb 3a3f 6e27 0d3e 2c5e 49be
00000380: 1acf 843e 4efc a63e a6cb 4b3e 0c2e eb3d
00000390: e882 473f d41d 70be 7a93 733e 53b1 ba3e
000003a0: 7057 a8bc 6ac1 ed3e 998d 593f 80d8 233f
000003b0: a2ea b93e 4936 dd3e a9b3 8d3e 867e 613e
000003c0: 1a95 0f3e 417f 2e3f 64f2 b7bd b868 a0bd
000003d0: 781e 293f 5b17 b3be f81c 053e f1e6 b03e
000003e0: 1308 813e a202 f33e bc83 9d3e 8837 4e3f
000003f0: d88c f83e 3bf7 1f3f 4699 12be ab6f 3dbe
0.687706 0.2953685 -0.064792484 -0.002945304 0.7017155 0.008868277 0.11244586 0.8312353
0.13355708 0.51584446 0.41009277 0.52470016 0.498844 0.586973 -0.19526811 -0.3311255
-0.19473398 0.039661836 -0.3516602 0.11489239 0.115443304 0.19417742 -0.21674699 -0.14487028
0.16753754 -0.37596878 0.17067587 -0.3937417 -0.4104388 -0.19225591 -0.2815457 0.17581645
0.5474299 0.57621074 0.08348611 -0.22654854 0.5694483 0.009507865 0.3494763 0.56214267
-0.0009199381 0.4006264 0.1932446 0.36923367 0.7831449 0.2023068 0.11269039 -0.19228758
0.38050172 0.18798783 -0.18154822 0.013607025 0.6346197 -0.17652436 -0.2109765 0.36206135
0.3105885 0.5037224 0.057550803 0.23385961 0.76342046 0.5591404 0.3458912 -0.35132322
-0.16017468 -0.1328508 0.16764757 -0.18650503 -0.2996488 -0.2752924 -0.06276429 0.28371498
-0.26877767 -0.26140946 -0.06057181 -0.22642723 -0.08106877 -0.2816408 -0.09802553 -0.18823752
-0.12696038 -0.3193892 0.261524 0.34017763 -0.25657663 -0.1649371 -0.28174007 -0.2125672
0.27450433 0.066786565 -0.33884946 -0.115615435 -0.036850415 -0.06770208 -0.1442915 -0.30179808
0.8016852 0.6235814 0.039741784 0.16661671 0.18601756 0.13052979 -0.03925082 0.4539024
-0.009592593 0.47157204 0.10886882 0.31717512 0.566365 0.3367045 0.3359526 -0.13985424
0.44681787 0.29418102 -0.021330386 0.05444202 0.38095686 -0.19421065 0.18724164 0.29866925
-0.020983577 0.40653926 0.08145492 0.83213675 0.19803129 0.5288266 -0.29346597 -0.2571913
0.6706794 0.7689619 -0.16101398 -0.039016098 0.9102114 -0.06814736 0.34642944 0.61733687
-0.22514255 0.6124455 0.67966056 0.785198 0.5618704 0.33200884 0.32379255 -0.24793671
0.5842478 0.73165613 -0.33801723 0.34936294 0.6812002 -0.25939757 -0.17871271 0.28170353
0.2714691 0.679668 0.41994575 0.43609884 0.36708117 0.26386076 -0.22357187 0.22609898
0.69088197 0.78433955 -0.13500154 -0.14409131 0.30505866 0.21686575 0.13485351 0.410946
-0.20324656 0.450456 0.17078303 0.3783495 0.37302375 0.27482173 -0.0051017404 -0.07611042
-0.024538383 0.14468567 0.031077445 0.20497712 0.43818355 -0.12429683 0.02896601 -0.32913512
0.1502153 -0.43539044 0.44632527 -0.07150655 -0.62883484 -0.5387301 -0.24937493 -0.058124542
-0.20822738 -0.13316688 0.15611097 0.17257872 -0.056740783 0.2209315 0.28293142 -0.3295346
0.2683405 -0.050515033 -0.09740937 -0.23700225 0.18899283 -0.24486199 0.10211554 -0.24518782
0.58138144 0.6637574 -0.07526383 0.23500052 0.31407633 0.33490196 0.2998428 0.25163358
0.052832723 0.35954276 0.54194874 0.84411716 0.65345365 0.7296706 0.13784572 -0.1966483
0.25939256 0.32614368 0.19901904 0.11483392 0.7793412 -0.23448879 0.23786727 0.36463413
-0.020549506 0.46436626 0.84981686 0.6400223 0.36311823 0.4320548 0.27676132 0.22020921
0.14021721 0.68162924 -0.08981779 -0.078324735 0.66062117 -0.34978756 0.12999332 0.34551194
0.25201473 0.47462946 0.30764568 0.80553484 0.48544955 0.6248662 -0.14316282 -0.18499629

conv3.bias f4 [64]
00000000: ef67 e73c 0731 6bbe 0a99 403b d9d3 8dbe
00000010: 7ac0 6cbe 585c ae3c 29db 5c3e 7594 e4ba
00000020: 67df dcbe da1b 193d 3961 91be 060f 33bd
00000030: 3ad7 3d3c 0f02 3f3e 1ac1 fabc ceb0 d5be
00000040: fdba 533e 8b66 183d 8d37 96be 62f8 413e
00000050: c79e efbe 652a 8f3d ba2d 8d3c e83f a0be
00000060: 593f e73c b08b aabe 970e c63d 115c aabe
00000070: e989 09be 7883 32be 107c 24be fe4a 17be
00000080: d74a 9bbe 1b5d 61be ec21 babe 27ed 58bb
00000090: c645 d3be d2da 4b3e 59d7 0cbd 8a56 c3be
000000a0: c7b0 7fbe f4e4 6bbc c38e 30bd 51bc 8bbd
000000b0: b422 6e3e fa7b 2c3d 886e 3c3e 165a 123e
000000c0: 635e 173e 123d 25be f66a 293e 9cb1 4a3d
000000d0: 0141 27be 1df5 99bd cdc7 e4be 880b 1b3d
000000e0: 9c64 683e e697 253c cc21 f9bd dcc2 b0be
000000f0: 87fe 2abe 322c 88bd 38c9 f1be 1426 a2be
0.028247802 -0.22967921 0.0029388093 -0.2770069 -0.23120299 0.021284267 0.21567978 -0.0017439263
-0.43139192 0.037380077 -0.28394488 -0.0437155 0.011586959 0.18653129 -0.030609656 -0.41736454
0.20676799 0.037207168 -0.29339257 0.18942407 -0.46800825 0.06990508 0.017233718 -0.31298757
0.028228449 -0.33309698 0.096707515 -0.33273366 -0.13431515 -0.17432964 -0.16062951 -0.14774701
-0.30330536 -0.22008173 -0.36354005 -0.0033100338 -0.4126417 0.19907692 -0.03438506 -0.38151962
-0.24969779 -0.014397848 -0.0431049 -0.06823028 0.23255426 0.04211042 0.1840154 0.14292178
0.147821 -0.16136578 0.16544709 0.049485788 -0.16333391 -0.07517455 -0.44683686 0.037852794
0.2269463 0.010107016 -0.12164649 -0.34523666 -0.16698657 -0.066490546 -0.4722383 -0.31669676

conv3.lin.weight f4 [64, 32]
00000000: a981 0c3f 88de 97be 6306 d93e b9a6 213f
00000010: 8601 0bbe c62d 06be 7040 193f 44be f53e
00000020: 2776 d33e 10bb 1c3f be87 153f 6974 48be
00000030: f2c7 70be 44db b03e 35de 8f3e 3c39 183f
00000040: 5896 043f 8a95 d23e 0483 543e d6b8 1d3f
00000050: 91b0 203e 63e7 d9bd c096 153f 8171 e83e
00000060: 521e c4bd 109c 043f 58c2 883e 3ce2 6bbd
00000070: fc76 333c a8b4 483e 0bb2 373c deb7 563e
00000080: fb6f d23e dec0 75bf a557 013f e314 e53e
00000090: 6424 263e 441f 543e 78fb f53e b939 c13e
000000a0: e6b6 6a3e 6649 713e a74a 253f 4730 69bf
000000b0: aaa2 4dbe 2840 cc3e b4d9 cd3e ba8e ee3e
000000c0: dbdc 7e3e b35b af3e 3962 043f 3c49 9e3e
000000d0: 5121 823e c4ca 48bf eaeb 1a3f 1a52 e83e
000000e0: d7a2 82bf b739 b23d ecb7 803e fc08 7abf
000000f0: 903b 6ebf 41a4 b83d e93b 0a3e 5f62 f03e
00000100: 98b3 e8be fdaa 09bd a58d 90be 02e9 abbe
00000110: 53ed 9a3c d356 7c3e a649 0ebf 1e72 4fbf
00000120: eb8c 9f3d 1f84 afbe 99f3 22bf a925 6bbd
00000130: c54c 753d 3d52 f2be 6b44 523f c360 90be
00000140: b86c 30bf a3d0 84be 28d2 17bf e64e 8a3f
00000150: 58c3 e5be 002d 6d3d 60ad 12bf a4f2 13bf
00000160: 0add 5b3d 8bd0 943e ffc5 d6be 8c13 aa3d
00000170: 27b6 0cbe 5125 573e c64d 06bf b302 24bf
00000180: 2051 0d3e 1444 75bf 0337 323e 51ce e73e
00000190: f06f 4cbd 3264 5ebe 97ee 013f e46f ae3d
000001a0: 00b2 3c3e 5a5d e13e e9bc ef3e bf6b 35bf
000001b0: 98a0 fbbc a22e 023f 8456 803e d13e 843e
000001c0: f581 043f 0da4 953e a3b5 033e fa8c 233e
000001d0: f791 c63e 6524 84bf 4195 c83d b753 b83e
000001e0: 5e8d 24bf 8bcc 243d adb9 493e baf6 42bf
000001f0: 4c83 9bbf 46f6 58bd 959b 9c3e ec28 e33e
00000200: b37d 993e 0ab7 82bf 77ee 8f3e 0a1b 123f
00000210: ac1d 60be f93d 02be 589d 033f 9096 123f
00000220: ad27 8bbc 4af1 953e 90d6 fe3e f64d 73bf
00000230: a4b6 63be 70ed f23e 7e05 933d 5c7b c23e
00000240: fc29 363e eab4 193e 5a60 bb3e e407 193e
00000250: f9a8 893e fd6f 8abf 84fd cc3e 6539 e43e
00000260: 5861 1fbf 56fc 953d 9e86 113f 27a1 56bf
00000270: feeb 46bf 9853 553e 4321 d93e 1309 b33e
00000280: 8c4e 0b3f 4136 dbbd 9cc9 663f a407 4d3f
00000290: 53ab 2b3e 00b4 a2bd 32dd 2d3f 01f2 1c3f
000002a0: a583 e83e d004 c33e 4c3a cc3e 4d55 81bd
000002b0: 2c63 a03d d439 253f 92f6 d23e 7df1 c13e
000002c0: 82fa e83e b46f 213f c588 0b3f a676 053f
000002d0: a9d5 493f 2e54 1fbe 778f 3b3f 8cf0 143f
000002e0: 329d b0bd fd59 2c3f 917c 283f 398a 45be
000002f0: b585 11be fce2 6cbe b052 623d d631 163f
00000300: f046 193e 19a3 9f3e 4bae 31be 404d 13be
00000310: 84f0 613e 9d82 c8bd 23f9 89be ca30 8cbe
00000320: eb55 073f 050b 523c 46bb a63d 1dcb 983e
00000330: c293 36be 1f88 00be 3932 e23e ad68 29be
00000340: aa90 80be aa79 21be c828 103e cd09 ee3c
00000350: 28f7 183e 9268 a93e bb2b 7ebe 904d 89be
00000360: 0778 f63e 286c af3e 09e2 46bc 99c9 863e
00000370: cfa6 023f e957 9c3d 91e9 61bb dda8 05be
00000380: e65a d03e c17f edbd 8548 c43e 5cb6 c23e
00000390: f946 63be 5ce9 27be 7723 213f 296e 0f3f
000003a0: 60be 1b3e edc4 d53e 510f fb3e 5941 b43d
000003b0: 1374 01be 63d7 1d3f 075a a93e 5c73 103f
000003c0: 8e54 c63e 56eb 703e 53e1 153f cd4a be3e
000003d0: d28e 333e b64a 15be ee95 d63e 00fd 093f
000003e0: c861 b93c a042 643e 218a 1b3f 830a cdbd
000003f0: e267 0dbd be06 39be 9d44 0cbb 5d61 c83e
0.54885346 -0.29661965 0.42387685 0.63145024 -0.135748 -0.13103399 0.5986395 0.47996724
0.4130108 0.61222935 0.5841025 -0.19575657 -0.23513773 0.34542286 0.28099218 0.5946233
0.51791906 0.41129714 0.20753103 0.6161016 0.15692355 -0.10639837 0.5843315 0.45399097
-0.09576096 0.5180063 0.26710773 -0.0575888 0.010953661 0.19600165 0.011211882 0.20968577
0.4110106 -0.95997417 0.5052436 0.44742498 0.1622482 0.20715052 0.48043418 0.3773935
0.22921333 0.23563156 0.64567035 -0.9108929 -0.20081583 0.39892697 0.40205157 0.46593267
0.24888937 0.34249648 0.51712376 0.30915248 0.25416043 -0.78434396 0.60516226 0.4537514
-1.0205945 0.087024145 0.2514032 -0.9766996 -0.93059635 0.09015704 0.13499416 0.4695005
-0.4544952 -0.033610333 -0.28233066 -0.33576208 0.018911993 0.24642496 -0.5558113 -0.81033504
0.0779055 -0.34280488 -0.6365295 -0.057408962 0.059887666 -0.47328368 0.8213565 -0.28198823
-0.6891589 -0.25940427 -0.5930505 1.0805328 -0.44875598 0.057904243 -0.572958 -0.57792115
0.053677596 0.29065356 -0.41947934 0.083045095 -0.1374136 0.21010329 -0.5246242 -0.6406662
0.13800478 -0.95807004 0.17403798 0.45274594 -0.04991144 -0.21717909 0.50754684 0.08517435
0.18427277 0.44016534 0.46823815 -0.7086753 -0.030716226 0.50852406 0.25066006 0.25829175
0.517608 0.29226723 0.12862258 0.15971747 0.38783237 -1.0323607 0.09794093 0.3600137
-0.6427821 0.04023413 0.19699736 -0.76157725 -1.2149444 -0.05296924 0.3058745 0.44367158
0.29978713 -1.0212109 0.28111622 0.5707251 -0.21886319 -0.12718953 0.5141196 0.5726099
-0.016986692 0.2928565 0.49773073 -0.95040834 -0.2223764 0.47446775 0.07178782 0.3798474
0.17789453 0.1501042 0.36596948 0.14944416 0.26886728 -1.0815426 0.40037167 0.4457504
-0.6225791 0.0732352 0.56846035 -0.8383965 -0.77703846 0.2083267 0.4240819 0.3496786
0.5441673 -0.107037075 0.9015138 0.80089784 0.16764574 -0.079444885 0.6791564 0.6130677
0.45412937 0.3808961 0.39888227 -0.06315098 0.078314155 0.64541364 0.41203743 0.37879553
0.45503622 0.6306107 0.5450557 0.5213417 0.78841645 -0.15559456 0.73265785 0.58179545
-0.086237326 0.6732481 0.65815073 -0.19291009 -0.14211161 -0.23133463 0.05525464 0.58669794
0.14968467 0.3117912 -0.17351644 -0.14384937 0.22064406 -0.097905375 -0.2694789 -0.27380973
0.52865475 0.01282001 0.08141188 0.29842463 -0.17829803 -0.12551926 0.44178942 -0.16543837
-0.2511037 -0.15769067 0.14078057 0.029057408 0.14938033 0.33087593 -0.2482137 -0.26816988
0.4813845 0.34262204 -0.012138852 0.26325682 0.5103578 0.07633955 -0.0034471492 -0.13052697
0.4069435 -0.11596633 0.38336578 0.38029754 -0.22195043 -0.16397613 0.6294474 0.56027466
0.15209341 0.41751805 0.49035123 0.088015266 -0.12641935 0.6165678 0.33076498 0.56426024
0.38736385 0.23527274 0.5854694 0.37166443 0.1753495 -0.14579281 0.41911262 0.5390167
0.022629634 0.2229104 0.60757643 -0.100117706 -0.0345229 -0.18068978 -0.0021403201 0.39136782

fc.weight f4 [4, 64]
00000000: c2c9 273e 3c17 22bd 1d75 bdbc c0bd 66be
00000010: ddfa fcbd 7ee7 4a3e 4d2a ac3d d54a 403e
00000020: 77aa c8be e3f5 563e 0e2b 3dbe b5df 9bbc
00000030: 74fd 443e 55ca 3cbd 145f 353e 7ea6 83be
00000040: 2fce 75bd 9aee b4bd 4c63 84be 4822 003e
00000050: 3d4c 1bbe 3f8b 163e bfc7 b13d d3bb 133d
00000060: 3fc8 2d3e 9891 18bb 3fe4 73ba 3708 6cbe
00000070: 6600 1bbd 03c6 f6bd 3be9 d1be 03ce 2c3e
00000080: 1303 08bf 204a 52be 6233 1ebd 6ff7 053e
00000090: 65dc 99bd 921b 113e ba8b 6d3b 6865 233d
000000a0: 900d ad3d 2e9d fd3d 0c4c 193e ad30 ef3d
000000b0: f351 833d d6e1 e33d 1c56 173d f9f9 ebbd
000000c0: dd5f ecbd cded b3bd ca13 cf3d ae81 223e
000000d0: b4c4 06bb 27a6 063c 8acd b4bc 2171 cf3c
000000e0: 74fb 3b3c 6967 053e 4416 a83d 232b a9bd
000000f0: 1cd3 36be 3f05 7cbd d5c9 0bbe 6da6 303d
00000100: 5dcf 0fbd d767 753e acde 9d3e 5667 513e
00000110: b953 5a3e 0da6 6abd e4c8 3ebe 6674 a5bd
00000120: d78a 273f 6d70 ccbd 19a5 973e f6ed 6f3d
00000130: 4616 91bd e228 22be a4f0 babd 0c6d 843e
00000140: bc28 dc3d d01a 08be 23db c43e 5a8a 23be
00000150: 20ed c53e 5b1a 603d 7814 13bd 0ea2 5b3e
00000160: 6193 50bd c538 553e 4d6d 7cbd 84f3 a93e
00000170: bad5 c53d 2053 e13d 8554 103f 7fea 1a3e
00000180: f4d1 563f da99 843e 965e 513e ef36 dc3c
00000190: 1fa3 9a3e 39a5 663d 6d94 81bb f284 6a3e
000001a0: f544 0c3e aa47 913d d949 0b3e e3b2 043e
000001b0: d06c a93d 4462 cabd a4e2 2bbe 8a43 003e
000001c0: 0907 693d 188e 433e 0232 15be 0144 ddbd
000001d0: d5c3 e03d 8a1d 363d 3702 113e 5642 dabc
000001e0: a07d 923d abae e1bd 11bc 113e f661 6d3e
000001f0: 2f40 ab3d a026 22bd 835b 2e3e 4e4d 8f3e
00000200: 89d6 953e ee3a 883e 6cef d3be 73c2 2f3e
00000210: ad41 433e b734 373e e8cd ccbe 648f 4f3e
00000220: 70fc eabd eb59 583e e606 c03d d7f3 2d3e
00000230: 2ec0 813e fcdd 84be 9c35 153d ee57 2dbc
00000240: f9dd a6be 6100 d1bd bd51 603e d21a a9be
00000250: fd69 b43d 2b41 863e 73e1 7e3c 6470 273e
00000260: f2f8 743e e9fd 1d3e 8e7d ed3d d598 293e
00000270: 5db7 0e3e 2d29 243e 952b 25be 0eed c13d
00000280: 6725 a2be 21b0 173a 8fac 293e 9f1e bb3c
00000290: 0fa0 df3d 119e dabe 1ab8 593e 8250 41bb
000002a0: b847 b93d dd9c 2e3e 9155 8a3e 5b58 673e
000002b0: 2180 a2be 07ef 0e3e 1ff4 60be ecee 6ebe
000002c0: a81a 7bbe 9994 3f3e 5e57 89be 4dba 603e
000002d0: 3371 433e 1917 273e edbe 6c3c 2c0b 3d3e
000002e0: d046 d2be 45bf 913e 925e 983e 0ac2 273e
000002f0: 89fa 3b3e 11de dc3d 366f 5ebd c6b8 813e
00000300: 9841 50bf 6992 68bf 3bb5 64bb e1b9 74bf
00000310: 772a 68bf eb5d 78bf efe7 d43e 0b2b 55bf
00000320: 85d2 9ebf 2dff 6abf 1cf7 5ebf 7295 e4be
00000330: 7962 33bf 7d03 ea3e d3f1 7dbf 36ef 87bf
00000340: 9479 e83e 76b0 523e 3cc2 55bf 1870 b03e
00000350: ced3 63bf 3325 4dbf 17c1 71bf b7ca 75bf
00000360: 27a7 63bf 6e1a 7bbf 390d 67bf 3d29 5fbf
00000370: 9bc7 4ebf 3203 87bf e19c a9be 1da3 6abf
00000380: 573e 82bf 9caf 31bf e682 6dbf 2758 6fbf
00000390: d693 51bf ddbe c23e bb8c 6fbf e51d 83bf
000003a0: 9ec4 89bf 340a 65bf d416 5ebf b2e5 74bf
000003b0: f2c1 b93e 027c 58bf 1510 d13e e6b8 ce3e
000003c0: 83b7 af3e 0980 64bf 09de a63e eb93 5abf
000003d0: 5c34 55bf 1a00 6ebf 1242 7bbf 6f1c 72bf
000003e0: dc28 de3e b63c 55bf c934 67bf 2013 5cbf
000003f0: 0ab1 66bf 71b3 70bf ef55 86bf 2827 47bf
0.16385558 -0.03957294 -0.023127133 -0.22533321 -0.12352536 0.1981487 0.08406506 0.18778546
-0.39192554 0.20992236 -0.18473455 -0.01902757 0.1923731 -0.046091396 0.1771205 -0.2571296
-0.060011085 -0.08834572 -0.25857008 0.12513077 -0.15165801 0.14701556 0.08680677 0.036067795
0.16970919 -0.002328014 -0.00093037257 -0.23050009 -0.037842177 -0.120494865 -0.40998253 0.16875462
-0.5312969 -0.20536089 -0.03862322 0.1308267 -0.0751274 0.14170673 0.0036246614 0.03989163
0.084498525 0.12383495 0.14970416 0.11679206 0.06412115 0.11127059 0.036947355 -0.11522288
-0.11541722 -0.08785591 0.10111196 0.15869781 -0.0020564022 0.008218325 -0.022070665 0.025322499
0.011473525 0.13027729 0.08207372 -0.08260181 -0.1785397 -0.06152844 -0.13651212 0.043127466
-0.035109866 0.23965393 0.30833948 0.20449576 0.21321 -0.057287265 -0.18631321 -0.08078842
0.6544623 -0.09982381 0.29618147 0.058576547 -0.070843264 -0.15835908 -0.0912793 0.25864446
0.10749957 -0.13291478 0.38448438 -0.15970746 0.38657475 0.054712635 -0.035908192 0.21448538
-0.0509218 0.20822437 -0.061627675 0.331936 0.09659906 0.11002183 0.56378967 0.15128516
0.83914113 0.2589863 0.20446238 0.026881663 0.30202577 0.056309912 -0.0039544613 0.22902277
0.1369818 0.07093747 0.1360239 0.12958865 0.082727075 -0.09882024 -0.16785675 0.12525764
0.056891475 0.19097173 -0.14569858 -0.10803986 0.10974852 0.044461764 0.14161001 -0.02664296
0.07152867 -0.110196434 0.14231898 0.231819 0.083618514 -0.039587617 0.17027096 0.27988666
0.2926524 0.2660746 -0.41393602 0.1716402 0.19068022 0.17891203 -0.40000844 0.20269543
-0.1147393 0.21128051 0.09376316 0.16987549 0.25341934 -0.2595061 0.03642808 -0.010580046
-0.32591227 -0.102051504 0.2190618 -0.33028275 0.08809278 0.26221594 0.015556681 0.16351467
0.2392309 0.1542889 0.11596213 0.16562207 0.13937135 0.16031332 -0.16129906 0.09469043
-0.3166916 0.0005786438 0.16569732 0.02284175 0.10919201 -0.4269872 0.21261635 -0.002949745
0.090468824 0.17052026 0.27018407 0.22592299 -0.3173838 0.13958369 -0.21968125 -0.23333329
-0.24521887 0.1870903 -0.26824468 0.21946068 0.19086151 0.16317405 0.014449817 0.18461293
-0.4106965 0.2846624 0.2975965 0.16382614 0.1835729 0.10784543 -0.054305278 0.25336283
-0.8135009 -0.90848404 -0.003489806 -0.9559613 -0.90689796 -0.9701831 0.415832 -0.83268803
-1.2407995 -0.9179562 -0.8709581 -0.44645268 -0.7007213 0.45705786 -0.9919712 -1.0619876
0.45405257 0.20575127 -0.83499503 0.3446052 -0.88995063 -0.80134887 -0.94435257 -0.96012443
-0.8892693 -0.98087204 -0.9025455 -0.871723 -0.80773324 -1.054785 -0.33127502 -0.9165514
-1.0175275 -0.69408584 -0.9277786 -0.93493885 -0.81866205 0.38036242 -0.9357411 -1.0243498
-1.0763128 -0.89468694 -0.8675358 -0.9566299 0.3628078 -0.8456422 0.40832582 0.4037544
0.34319696 -0.89257866 0.32591274 -0.85381955 -0.8328302 -0.92968905 -0.9814769 -0.94574636
0.43390548 -0.8329576 -0.9031492 -0.8596668 -0.9011389 -0.94023806 -1.0494975 -0.7779412

fc.bias f4 [4]
00000000: 5bf5 d0bd 3e73 febd 3c7e 8abd 43da ed3c
-0.10203048 -0.124243245 -0.067623585 0.02903474
